data/onnx_model.onnx (onnx, 510409 bytes, 32 tensors)

input_net.1.bias f4 [8]
0	0xbfc8f333	-1.5699219
1	0xbf47f049	-0.7810102
2	0x3e2f425a	0.17115155
3	0xbedfc015	-0.43701234
4	0x3ebd4e15	0.36973634
5	0xbf619cd9	-0.88129956
6	0x3ebdcd32	0.37070614
7	0xbe644181	-0.22290613

transformer.layers.0.self_attn.qkv_proj.bias f4 [24]
0	0xbea41bfb	-0.32052597
1	0xbe8aafbe	-0.27087206
2	0xbede7cd3	-0.43454608
3	0x3ed8d7d6	0.4235217
4	0x3c97f29c	0.018548302
5	0x3c07ab61	0.008280606
6	0xbcaa5e24	-0.020796843
7	0x3cd4b5fb	0.025965681
8	0x3ddc045a	0.107430175
9	0x3e007b56	0.12547049
10	0x3e0c7c74	0.1371935
11	0x3d458db3	0.048230838
12	0xbe03782a	-0.12838808
13	0x3e99be5e	0.3002805
14	0x3ea69b4d	0.3254036
15	0x3ed40e1f	0.41417024
16	0xbbb81bb9	-0.005618539
17	0x3d387d6d	0.04504149
18	0x39fcf30f	0.00048246278
19	0xbae3acc8	-0.0017370218
20	0x3e1a6fd8	0.15081728
21	0xbe1e2520	-0.1544385
22	0xbd8b57b6	-0.06803839
23	0x3e304bf6	0.17216477

transformer.layers.0.self_attn.o_proj.bias f4 [8]
0	0xbeccace6	-0.3997566
1	0x3e829a65	0.2550842
2	0xbdc9c1ec	-0.09851441
3	0x3c3b7e57	0.011443696
4	0x3e4b5207	0.1985551
5	0x3e874f83	0.2642785
6	0x3cda14b7	0.026621206
7	0x3da7d0b6	0.08194105

transformer.layers.0.linear_net.0.bias f4 [16]
0	0xbe82672c	-0.2546934
1	0xbf54376a	-0.82897055
2	0xbf839ee1	-1.0282861
3	0xbe936302	-0.28786474
4	0xbf0fa172	-0.5610572
5	0xbeee8b52	-0.46590668
6	0xbe7b4555	-0.24538167
7	0xbed0badc	-0.40767562
8	0xbf044bc0	-0.51678085
9	0xbf2d83ca	-0.6777922
10	0xbe9a2cf0	-0.3011241
11	0xbe738828	-0.23782408
12	0xbefabfad	-0.48974362
13	0xbf74409a	-0.95411074
14	0xbee07d13	-0.43845424
15	0xbf31d8cf	-0.6947145

transformer.layers.0.linear_net.3.bias f4 [8]
0	0xbad32c18	-0.0016111163
1	0xbc9a0861	-0.018802823
2	0x3c9f6f3e	0.019462224
3	0xbb394e1f	-0.0028275324
4	0xbcfa8751	-0.030582102
5	0xbbd49015	-0.0064869025
6	0x3c9fc411	0.019502671
7	0x3a84a25f	0.0010119191

transformer.layers.0.norm1.weight f4 [8]
0	0x3f8e89c6	1.1135795
1	0x3e8e6ce2	0.27817446
2	0x3f524c60	0.8214779
3	0x3f0f7db0	0.5605116
4	0x3f63db90	0.890069
5	0x3f2122db	0.6294381
6	0x3f822f41	1.0170671
7	0x3f919b5a	1.1375535

transformer.layers.0.norm1.bias f4 [8]
0	0x3e80edd0	0.25181437
1	0x3d143270	0.036180913
2	0x3ef3c129	0.47608307
3	0xbd9361fe	-0.07196425
4	0xbe305d96	-0.172232
5	0xbbe0c714	-0.0068596695
6	0xbe50dbc6	-0.20396337
7	0xbdc5863b	-0.09644743

transformer.layers.0.norm2.weight f4 [8]
0	0x3f9222b2	1.1416838
1	0x3f8adb76	1.0848224
2	0x3f8c659b	1.0968508
3	0x3fa9079c	1.3205447
4	0x3f71d734	0.94469
5	0x3f2c556b	0.6731784
6	0x3f83aff4	1.0288072
7	0x3f936a2f	1.151678

transformer.layers.0.norm2.bias f4 [8]
0	0x3df903b5	0.1215891
1	0x3e772160	0.24133825
2	0xbdd09bc4	-0.1018596
3	0xbe027767	-0.12740861
4	0xbdcdb654	-0.10044542
5	0x3e0655fa	0.13118735
6	0x3d52d9d8	0.051477283
7	0xbe401437	-0.18757711

transformer.layers.1.self_attn.qkv_proj.bias f4 [24]
0	0xbe89347b	-0.26797852
1	0xbea51373	-0.322414
2	0x3c533858	0.012891851
3	0xbf4bac25	-0.79559547
4	0x3ba05833	0.0048933267
5	0x3a3a7896	0.00071133056
6	0xba9689e6	-0.0011485189
7	0xbb96bcda	-0.0046001496
8	0xbe2c5f7c	-0.168333
9	0xbe5173a2	-0.20454267
10	0xbd60ec61	-0.05491293
11	0xbd519c2f	-0.05117434
12	0x3e1bd6b4	0.15218621
13	0xbf0a4770	-0.54015255
14	0xbee242f3	-0.44191703
15	0xbf149dfb	-0.5805356
16	0xbbae1e8f	-0.0053137015
17	0x3b808415	0.0039219954
18	0x3afd180c	0.0019309535
19	0x3c1ed3d3	0.0096940575
20	0xbd829948	-0.06376892
21	0xbc94ee21	-0.018179955
22	0xbb1329d2	-0.0022455347
23	0x3c75db3b	0.015005882

transformer.layers.1.self_attn.o_proj.bias f4 [8]
0	0x3ea4d7e1	0.32195953
1	0x3e977d54	0.29587805
2	0xbe02d4a3	-0.12776427
3	0x3e1f52b8	0.15558898
4	0xbddccff8	-0.107818544
5	0x3d105d28	0.03524509
6	0xbe29e4be	-0.16591164
7	0xbe361594	-0.17781669

transformer.layers.1.linear_net.0.bias f4 [16]
0	0xbe663bc5	-0.22483738
1	0xbefae73b	-0.4900454
2	0xbeedd279	-0.4644964
3	0xbf407ebd	-0.7519339
4	0xbf0a7f9f	-0.54100984
5	0xbec40882	-0.3828774
6	0xbecd0f3d	-0.40050688
7	0xbf30375b	-0.68834466
8	0xbecd747f	-0.40127942
9	0xbf00ca09	-0.5030828
10	0xbebbf076	-0.36706895
11	0xbeb04a4c	-0.34431684
12	0xbee98c2a	-0.4561475
13	0xbe418058	-0.18896616
14	0xbebd66d5	-0.36992517
15	0xbedd442f	-0.43216082

transformer.layers.1.linear_net.3.bias f4 [8]
0	0x3e1c96cc	0.152919
1	0xbc778ad7	-0.015108786
2	0xbe43fb48	-0.19138825
3	0x3d4842f8	0.04889199
4	0x3e8e6327	0.27810022
5	0xbdede0df	-0.116151564
6	0x3e8856e5	0.26628795
7	0x3d22093f	0.0395596

transformer.layers.1.norm1.weight f4 [8]
0	0x3f941ced	1.1571327
1	0x3f7f372f	0.9969358
2	0x3f31e989	0.6949697
3	0x3f85a157	1.0439862
4	0x3f70eb56	0.94109094
5	0x3f8213df	1.0162314
6	0x3f4ba8b7	0.79554313
7	0x3f2a5c95	0.6654752

transformer.layers.1.norm1.bias f4 [8]
0	0x3e022472	0.12709215
1	0x3e868302	0.26271826
2	0xbba78664	-0.005112456
3	0xbe669db7	-0.22521101
4	0xbde13b22	-0.10997607
5	0xbde0d003	-0.10977175
6	0xbd3cddee	-0.046110086
7	0xbe56a635	-0.2096184

transformer.layers.1.norm2.weight f4 [8]
0	0x3f6fd6c2	0.9368707
1	0x3f8f5cbf	1.1200179
2	0x3f8a830b	1.0821241
3	0x3f9284a7	1.1446732
4	0x3f69a44d	0.9126633
5	0x3f59502f	0.84887975
6	0x3f55f24f	0.8357286
7	0x3f84eaad	1.0384117

transformer.layers.1.norm2.bias f4 [8]
0	0xbda343a8	-0.07971889
1	0xbe5d67fd	-0.216217
2	0xbe943801	-0.28948978
3	0x3dab01e7	0.08349972
4	0x3df81e12	0.121151105
5	0x3d0165f6	0.03159138
6	0x3e140999	0.14456786
7	0x3dd1da0f	0.102466695

output_net.0.bias f4 [8]
0	0x3e55b14c	0.20868415
1	0x3dd9264c	0.10603008
2	0x3e418367	0.18897782
3	0x3e54ed7e	0.20793721
4	0xbb51027a	-0.0031892345
5	0x3cf0fb8a	0.029416818
6	0x3f03250c	0.51228404
7	0x3f08e882	0.5347978

output_net.1.weight f4 [8]
0	0x401b4d86	2.4266067
1	0x40112049	2.2675955
2	0x40356233	2.8341186
3	0x401a7ed2	2.4139905
4	0x3fbd1c9f	1.477436
5	0x40305192	2.7549787
6	0x401eb863	2.480004
7	0x4055e71d	3.342231

output_net.1.bias f4 [8]
0	0x3fa4ea82	1.2884066
1	0x3f911dd0	1.1337223
2	0x3fa0a5a6	1.2550552
3	0x3f7cdf47	0.98778194
4	0x3e7950d0	0.24347234
5	0x3f96999c	1.1765628
6	0x3f9f3ed6	1.2441051
7	0x3f9f7fa0	1.2460823

output_net.4.bias f4 [15]
0	0x3e57d083	0.21075635
1	0x3f21e429	0.6323877
2	0xbcb0f687	-0.021601928
3	0x3f1d0b66	0.6134552
4	0x3db834c7	0.089944415
5	0x3d80ad48	0.06283051
6	0x3e7e7093	0.24847631
7	0xbe871b98	-0.2638824
8	0xbd3c8333	-0.04602356
9	0xbf21e9d3	-0.6324741
10	0x3e2da8b2	0.16958883
11	0xbebc6cb7	-0.36801693
12	0x3d543eb6	0.05181762
13	0xbda192d6	-0.07889335
14	0xbf19cb77	-0.6007609

onnx::MatMul_225 f4 [3, 8]
0	0x3f34577a	0.7044598
1	0x3e8e84a3	0.2783557
2	0xbeb414b8	-0.35172057
3	0xbed0e2ef	-0.40798137
4	0x3f210cc0	0.6291008
5	0xbe4b7484	-0.19868666
6	0xbe9d6862	-0.307437
7	0xbe38a6dc	-0.18032402
8	0x3f645be6	0.89202726
9	0xbee17604	-0.4403535
10	0x3f51b835	0.819217
11	0x3f52e31c	0.8237779
12	0x3eedddee	0.4645838
13	0x3f310789	0.6915212
14	0xbb982a59	-0.00464372
15	0xbf28bfff	-0.6591796
16	0x3d8c0b36	0.06838076
17	0xbed6b2d0	-0.41933298
18	0x3fcf1a20	1.6179848
19	0x3e9184ab	0.2842153
20	0x3f1bc52f	0.60847753
21	0x3e31babc	0.1735639
22	0xbf849e06	-1.0360725
23	0x3f3547bb	0.70812577

onnx::MatMul_226 f4 [8, 24]
0	0x3ea0ae6f	0.31383082
1	0xbf384569	-0.7198091
2	0x3eac6b5f	0.33675668
3	0xbf43bdef	-0.7646169
4	0x3e91f995	0.28510728
5	0x3dc8d600	0.09806442
6	0xbe2a50fd	-0.16632457
7	0xbed46167	-0.41480562
8	0xbe02fac0	-0.12790966
9	0x3e55e8ec	0.20889634
10	0xbd8a6ed6	-0.067594215
11	0xbe21b5fa	-0.15792075
12	0xbea87749	-0.32903507
13	0x3f55f20c	0.8357246
14	0xbecdf615	-0.40226808
15	0xbe7dfebd	-0.24804206
16	0x3ea1f1ad	0.31629696
17	0xbe9c87d4	-0.3057238
18	0x3ec9721e	0.39344877
19	0x3eb03531	0.34415582
20	0x3d9369d2	0.07197918
21	0x3e1b09b8	0.15140426
22	0x3d8b467c	0.06800553
23	0x3e736321	0.23768283
24	0xbee56526	-0.44803733
25	0x3d0ed408	0.034870178
26	0x3f42d2e4	0.76103044
27	0xbf645062	-0.89185154
28	0x3dd747da	0.105117515
29	0xbf189adf	-0.59611315
30	0xbcfc990a	-0.030834693
31	0x3df3930f	0.118932836
32	0x3e3ee055	0.18640263
33	0xbe196ceb	-0.14982955
34	0x3d855449	0.06510217
35	0x3df5681a	0.119827464
36	0x3f8bb587	1.0914773
37	0xbec6914a	-0.38782722
38	0xbedc1f61	-0.4299269
39	0x3e19e2a0	0.15027857
40	0xbe81b4b4	-0.25333178
41	0x3e7ef73f	0.24899004
42	0xbd914451	-0.070931084
43	0xbb88de4e	-0.0041768914
44	0x3cf97649	0.03045191
45	0x3de4b866	0.11167984
46	0x3df5c54d	0.12000523
47	0xbdb63357	-0.08896511
48	0x3fc9b466	1.5758178
49	0x3f085b73	0.5326454
50	0x3ec0ec62	0.37680346
51	0x3f41fdde	0.75777996
52	0x3e401112	0.18756512
53	0x3f399502	0.7249299
54	0x3f66c7fd	0.9014891
55	0x3f05af4f	0.52220625
56	0xbe0ca4e5	-0.13734777
57	0x3d4606fd	0.04834651
58	0x3e5f85ab	0.21828334
59	0x3e251451	0.16121031
60	0xbf467d92	-0.77535355
61	0xbf5eee46	-0.87082326
62	0xbe070ff7	-0.13189684
63	0xbf30786b	-0.68933743
64	0xbf7835f4	-0.96957326
65	0x3e62008e	0.22070524
66	0xbed93e56	-0.4243037
67	0xbebb6eae	-0.3660788
68	0x3e804f59	0.25060537
69	0x3e5371f6	0.20648941
70	0xbc1d9444	-0.009617869
71	0xbe82aa86	-0.25520724
72	0x3f2d18b3	0.67615813
73	0x3e89a3cd	0.26882783
74	0xbdd5bd15	-0.10436455
75	0xbe93bd58	-0.28855395
76	0x3ec93cd4	0.3930422
77	0x3eb7ac80	0.35873795
78	0x3f588c64	0.8458922
79	0xbf73daaa	-0.9525553
80	0xbb1ea4be	-0.002420708
81	0xbeb80404	-0.35940564
82	0x3d2cc70a	0.042182006
83	0xbe49a816	-0.19693026
84	0xbed85dc9	-0.42259052
85	0x3d754efc	0.05988978
86	0x3e9b1290	0.302876
87	0x3f1d24dd	0.61384374
88	0x3eaf2e1e	0.34214872
89	0xbfa89884	-1.3171544
90	0xbf80df6e	-1.0068185
91	0xbe9ef062	-0.31042773
92	0x3d859b4c	0.06523761
93	0x3d2a3f87	0.04156449
94	0xbec6a8c5	-0.38800636
95	0x3de73809	0.11289985
96	0xbcc418ef	-0.02393767
97	0xbf40c205	-0.7529605
98	0xbf617691	-0.8807154
99	0x3ea02f1e	0.31285948
100	0x3eeab9f0	0.45844984
101	0x3e12d62e	0.14339516
102	0xbfa83c9f	-1.31435
103	0x3f8b74c0	1.0895004
104	0x3de2a540	0.11066675
105	0xbea8969e	-0.32927412
106	0xbe9ec1ad	-0.31007138
107	0x3eb3c233	0.351091
108	0x3e67dd4e	0.22643015
109	0xbe0913b1	-0.13386418
110	0x3eb42cc8	0.35190415
111	0x3f5546fc	0.8331144
112	0xbf91521d	-1.1353184
113	0xbd50f845	-0.05101802
114	0x3f18af70	0.59642696
115	0x3e58ef5f	0.21185063
116	0xbe15d724	-0.14632851
117	0xbd156834	-0.03647633
118	0xbe53f97b	-0.20700638
119	0x3d1d379b	0.038383108
120	0x3f070486	0.5274128
121	0xbe3bb65f	-0.18331288
122	0xbef8459c	-0.48490608
123	0x3ed63e22	0.4184428
124	0xbdd8060b	-0.105480276
125	0x3ea9fe81	0.33201984
126	0x3e32d13f	0.17462634
127	0xbee8bb56	-0.45455426
128	0xbef8abfd	-0.48568717
129	0xbe3d84f0	-0.18507743
130	0xbf74ea33	-0.9566986
131	0x3f1194ae	0.5686749
132	0x3cac4693	0.021029746
133	0x3eda9896	0.4269454
134	0x3f8504d1	1.0392095
135	0x3de59726	0.1121047
136	0xbe040deb	-0.12895934
137	0xbf57aced	-0.8424824
138	0x3e3a8f0c	0.1821863
139	0xbf564990	-0.83706
140	0xbe3258c6	-0.17416677
141	0x3d9d83ca	0.076911524
142	0xbf10a1ae	-0.56496704
143	0x3f005bd5	0.50140125
144	0xbf794785	-0.97374755
145	0x3f09d99b	0.53847665
146	0xbf40d218	-0.7532058
147	0x3eecad47	0.4622595
148	0xbf842cd8	-1.0326185
149	0x3db8aae2	0.09016968
150	0x3e3035a5	0.17207964
151	0xbee0e2cc	-0.43923032
152	0x3e0c4d9c	0.1370148
153	0x3ea3c07c	0.3198279
154	0xbe713287	-0.23554431
155	0x3ed0e4d7	0.4079959
156	0x3ccbd171	0.024880143
157	0x3f0c0d18	0.5470748
158	0xbd0f8615	-0.03503998
159	0xbea578bc	-0.32318676
160	0x3f2f0608	0.6836858
161	0x3deb2027	0.11480742
162	0x3e3a1aa2	0.18174222
163	0xbf679a79	-0.9047008
164	0x3e740219	0.23828925
165	0xbe08f34f	-0.13374065
166	0x3dbda534	0.092600256
167	0x3e1e5b8b	0.15464608
168	0xbf18dd3f	-0.59712595
169	0xbf20200c	-0.625489
170	0x3dfde51e	0.12397216
171	0x3dcf7306	0.10129361
172	0x40046974	2.0689363
173	0xbd4b34c6	-0.049610876
174	0x3f50720b	0.81424016
175	0xbe08e6e5	-0.1336933
176	0x3a0277d9	0.0004976965
177	0xbe9c7db0	-0.30564642
178	0x3e1dd97d	0.15414996
179	0xbe11fd1c	-0.1425671
180	0xbf868317	-1.0508755
181	0x3da04372	0.07825364
182	0x3d82cb92	0.06386484
183	0x3f87571d	1.057346
184	0x3d0936e0	0.0334996
185	0x3e006776	0.12539467
186	0x3f0731f7	0.52810615
187	0x3f8000dd	1.0000263
188	0xbe5b9347	-0.214429
189	0x3e5dccf0	0.21660209
190	0x3eda2a72	0.42610508
191	0xbf26a18d	-0.65090257

onnx::MatMul_236 f4 [8, 8]
0	0xbe9d41a4	-0.30714142
1	0xbdd3a299	-0.103337474
2	0xbdd68fbd	-0.10476635
3	0xbf1ec5f1	-0.62020785
4	0x3ed07f25	0.40722004
5	0x3e10a285	0.14124496
6	0x3f105664	0.5638182
7	0xbd8a5b80	-0.067557335
8	0xbf30144f	-0.6878099
9	0x3e3b34bb	0.18281834
10	0xbeba63b3	-0.3640419
11	0x3b47ce54	0.0030487971
12	0x3ea85e02	0.32884222
13	0x3ebe421d	0.37159815
14	0x3f21ac08	0.63153124
15	0xbe726d51	-0.23674513
16	0xbf1dbfbd	-0.61620694
17	0xbc458562	-0.012055727
18	0xbebef788	-0.37298226
19	0xbef1a418	-0.47195506
20	0x3f29b073	0.66284865
21	0xbead95f4	-0.33903468
22	0x3c8ee787	0.017444385
23	0x3dedc0ea	0.11609061
24	0x3e51a82a	0.20474306
25	0xbd69bce8	-0.05706492
26	0xbe307c64	-0.17234951
27	0x3f523163	0.8210661
28	0x3edc0002	0.42968756
29	0x3dfd39e0	0.123645544
30	0xbe32808f	-0.17431854
31	0xbf0d17fd	-0.5511473
32	0x3e4ee13b	0.20203106
33	0x3e9365af	0.28788516
34	0x3c9b6d6a	0.018973071
35	0xbf1374b6	-0.5759996
36	0x3eb896db	0.36052594
37	0x3ea3d740	0.3200016
38	0xbce0e7c4	-0.027454264
39	0x3e26ce72	0.1628969
40	0xbe378c48	-0.17924607
41	0xbf1fafa4	-0.6237738
42	0x3e90f276	0.28309983
43	0x3cb6c58c	0.022310995
44	0x3e11b760	0.14230108
45	0xbee94643	-0.45561418
46	0x3dba3c91	0.090935834
47	0xbde19929	-0.11015541
48	0x3f1975fa	0.5994564
49	0xbea9180d	-0.33026162
50	0x3e5df7e0	0.21676588
51	0xbe88be35	-0.26707616
52	0xbec79ad7	-0.3898532
53	0xbf3ee149	-0.7456251
54	0xbee05413	-0.43814144
55	0x3e811147	0.25208494
56	0xbe76e016	-0.2410892
57	0x3f24335b	0.6414086
58	0xbe7d7115	-0.24750169
59	0x3e2e85b1	0.17043187
60	0x3e9d323f	0.30702397
61	0x3f4f69f3	0.8102104
62	0xbe4989e5	-0.19681509
63	0xbc2c8eff	-0.01053214

onnx::MatMul_237 f4 [8, 16]
0	0x3dc8cbc9	0.09804494
1	0xbe643bf2	-0.22288492
2	0xbe8a9103	-0.2706376
3	0xbd94d0a5	-0.07266358
4	0x3e1b9d77	0.15196787
5	0x3d6f8970	0.05848068
6	0x3c97ee8e	0.018546369
7	0x3d5a43dc	0.053287372
8	0x3da5c762	0.0809467
9	0x3eb9eaa5	0.36311832
10	0xbcc5b64e	-0.024134781
11	0xbe686104	-0.22693259
12	0x3eb48a49	0.35261753
13	0x3eb15470	0.34634733
14	0xbe884a21	-0.26619056
15	0x3e27a2db	0.16370718
16	0x3ddace08	0.106838286
17	0xbe0985de	-0.13429973
18	0xbf600301	-0.87504584
19	0xbd8e7d9e	-0.06957553
20	0xbd1ea8cb	-0.038735192
21	0xbf528cce	-0.822461
22	0xbe31482b	-0.17312686
23	0x3cc25a25	0.023724625
24	0xbbd4002d	-0.0064697475
25	0xbcb5b5f6	-0.022181492
26	0xbd31ba8e	-0.043390803
27	0x3e09019d	0.13379522
28	0x3e703af5	0.2345999
29	0xbd84c66c	-0.064831585
30	0xbd1c9751	-0.038230244
31	0xbf0f2a7f	-0.5592422
32	0x3e62a971	0.2213495
33	0x3e6e77ac	0.23287839
34	0x3d34234b	0.04397897
35	0xbdd5b63c	-0.10435149
36	0x3e2d6c1f	0.16935776
37	0xbe7c3821	-0.24630786
38	0x3e0d1524	0.13777596
39	0xbe8cbf12	-0.27489525
40	0x3da2fa6f	0.07957923
41	0x3edd40ee	0.432136
42	0x3d0c509b	0.03425656
43	0x3c0f2828	0.008737601
44	0xbe7bbec4	-0.2458449
45	0x3d2fc575	0.04291292
46	0xbe0be880	-0.1366291
47	0x3cc2993f	0.023754714
48	0xbca53253	-0.020165598
49	0x3e03cddd	0.128715
50	0xbefdcc8d	-0.49570122
51	0xbf448edc	-0.76780486
52	0xbe8a4a10	-0.2700963
53	0x3e91c2f3	0.28469047
54	0xbe1c4c94	-0.15263587
55	0x3e1e8439	0.15480126
56	0x3e061534	0.13094026
57	0xbde23f75	-0.1104726
58	0xbdc96e9d	-0.09835551
59	0x3e74edde	0.23918864
60	0x3e59c518	0.21266592
61	0x3e76b827	0.24093686
62	0x3eef6857	0.46759292
63	0x3f1b0379	0.60552174
64	0xbf1c117f	-0.60964197
65	0xbe4ee06f	-0.20202802
66	0x3e023391	0.12714984
67	0xbe44cc65	-0.19218595
68	0xbb8fd57d	-0.0043894635
69	0x3e48f529	0.19624771
70	0xbf48444f	-0.7822923
71	0xbf30c30e	-0.6904763
72	0xbf664b35	-0.89958507
73	0xbf2bbe20	-0.6708698
74	0xbedf9d70	-0.43674803
75	0x3e375764	0.1790443
76	0xbf5a7f73	-0.8535072
77	0xbf6f79de	-0.9354533
78	0x3ecc8416	0.39944524
79	0x3dd676c3	0.10471871
80	0x3db23699	0.0870182
81	0xbe202c44	-0.15641886
82	0xbe9c59ef	-0.30537364
83	0x3d8ef052	0.06979431
84	0x3d1bca96	0.038034998
85	0x3e0bd5f6	0.13655838
86	0x3ec55b97	0.3854644
87	0xbe534934	-0.20633394
88	0xbe38a2d1	-0.1803086
89	0xbe032953	-0.12808733
90	0x3f48065f	0.7813472
91	0xbdc45922	-0.09587313
92	0xbdb55d19	-0.088556476
93	0x3dce1d82	0.10064222
94	0xbe2bb8c3	-0.167697
95	0x3e20f0c8	0.15716851
96	0x3e37ec94	0.17961341
97	0x3e788e91	0.24273135
98	0x3e662135	0.22473605
99	0xbdc15375	-0.09439746
100	0x3ee1ea86	0.4412424
101	0xbe618c94	-0.22026283
102	0x3db1cd78	0.08681768
103	0x3c7e0b26	0.015505588
104	0x3e3c95ee	0.18416569
105	0xbdee752a	-0.11643441
106	0xbe985a42	-0.2975636
107	0x3df27d7e	0.11840342
108	0x3deb58cb	0.11491545
109	0x3e252d79	0.16130628
110	0x3e2b3f07	0.16723262
111	0x3d3ed249	0.046587262
112	0x39ad9b63	0.00033112903
113	0x3dc8da2a	0.098072365
114	0x3e75b00d	0.2399294
115	0x3d6ae3eb	0.057346266
116	0x3e466a9f	0.1937661
117	0xbe02d949	-0.127782
118	0xbe1bd645	-0.15218456
119	0x3d727766	0.0591959
120	0x3cb8e51d	0.022570187
121	0x3e6361cf	0.2220528
122	0xbdbf9afb	-0.09355732
123	0xbdc933cc	-0.098243326
124	0xbe571873	-0.2100542
125	0xbefcd2c9	-0.49379566
126	0xbe659dcf	-0.2242348
127	0xbe5c81aa	-0.21533838

onnx::MatMul_238 f4 [16, 8]
0	0xbe9f7d27	-0.3115017
1	0xbed8d274	-0.42348063
2	0x3e86aa84	0.26301968
3	0xbdf3bc51	-0.11901153
4	0x3e26d116	0.16290697
5	0xbe6a24a3	-0.22865538
6	0xbdd02d32	-0.1016487
7	0x3d454fc4	0.048171774
8	0x3f8a0829	1.078374
9	0xbee0aa5e	-0.4387998
10	0x3e18d4aa	0.14924875
11	0x3f80ca6a	1.0061772
12	0xbe794b70	-0.24345183
13	0xbe0335ca	-0.12813488
14	0xbee77603	-0.45207223
15	0xbf7e6a58	-0.9938102
16	0xbe994573	-0.29935798
17	0x3f3e8be7	0.74432224
18	0xbe62ed55	-0.22160847
19	0x3eb8d62f	0.3610091
20	0x3f4fefe3	0.81225413
21	0xbf15d698	-0.5853057
22	0xbf3e88b7	-0.7442736
23	0x3e607cc4	0.21922594
24	0x3ea6bdf6	0.32566804
25	0xbeb7c8d8	-0.3589542
26	0x3d9b4f45	0.07583479
27	0x3edee479	0.43533686
28	0xbe2cc21f	-0.16870926
29	0x3ee4111d	0.44544306
30	0x3db93c1f	0.0904467
31	0xbe7d485b	-0.24734633
32	0xbf26fb4b	-0.6522719
33	0x3f2ae3bd	0.6675375
34	0xbe4d9323	-0.2007566
35	0x3e52eaa2	0.20597318
36	0x3f22ff65	0.6367095
37	0xbe987fc8	-0.2978499
38	0x3e09d567	0.13460313
39	0xbdf317ec	-0.11869797
40	0x3e086377	0.13319193
41	0x3e8430d4	0.25818503
42	0xbeb07013	-0.34460506
43	0xbe20635b	-0.15662901
44	0x3e61c2c4	0.22046953
45	0xbf3730fe	-0.7155913
46	0x3dcb9550	0.099405885
47	0x3e5efa81	0.21775247
48	0xbe1e019f	-0.15430306
49	0x3dd56ce2	0.104211584
50	0x3d1a7d0f	0.03771692
51	0xbda1316e	-0.07870756
52	0x3e2d2857	0.1690992
53	0x3e5156d8	0.20443285
54	0xbeb18bb3	-0.34676895
55	0x3e4f652f	0.20253442
56	0xbe8a5290	-0.27016115
57	0xbe83da94	-0.257527
58	0x3e620ec6	0.22075948
59	0xbdc602c1	-0.09668494
60	0x3e0060d1	0.12536933
61	0xbf0bbdc5	-0.5458644
62	0xbe13f059	-0.14447154
63	0x3ec54382	0.38528067
64	0xbdf46a25	-0.11934308
65	0xbee1ad1e	-0.4407739
66	0x3e88cb0e	0.26717418
67	0xbe6e9b92	-0.23301533
68	0xbe07a93a	-0.13248149
69	0xbe09bed5	-0.13451703
70	0x3d36f97f	0.04467153
71	0x3e69a063	0.22815089
72	0x3e869d90	0.26292086
73	0x3dbe8b3a	0.09303899
74	0xbd873d89	-0.06603534
75	0xbd2f883e	-0.04285454
76	0xbec20e7f	-0.37901685
77	0x3f9d35de	1.2282064
78	0x3eb4de3b	0.35325798
79	0xbe143cb7	-0.14476286
80	0xbd8f019c	-0.06982729
81	0x3e66525b	0.22492354
82	0xbde85c36	-0.11345713
83	0x3e93c8bb	0.28864083
84	0x3e45bdc3	0.1931067
85	0xbe2419c9	-0.16025461
86	0xbe8a0e0b	-0.2696384
87	0xbe2a2f77	-0.16619669
88	0xbd77bbdd	-0.060481895
89	0xbbfb5016	-0.007669459
90	0xbe0585c1	-0.13039304
91	0xbdbcf5a6	-0.09226541
92	0xbe5e81dd	-0.21729226
93	0x3eae5dfc	0.3405608
94	0x3e85883f	0.2608051
95	0xbe05afbb	-0.13055317
96	0x3dba494a	0.0909601
97	0xbeefbe81	-0.4682503
98	0x3e830120	0.25586796
99	0x3dd265ba	0.10273309
100	0xbf361e11	-0.7113963
101	0x3e3d944a	0.18513599
102	0x3d3893a7	0.045062687
103	0xbc7a2ba2	-0.015269192
104	0x3f3e70b5	0.7439073
105	0xbe4ebbc1	-0.2018881
106	0x3e473b39	0.19456185
107	0xbe21e4c4	-0.15809923
108	0xbf73a66f	-0.9517583
109	0x3f889ac4	1.0672231
110	0x3d85c5a2	0.06531836
111	0x3de26d0d	0.11055956
112	0xbd83cf91	-0.064360745
113	0xbdae0eb0	-0.08498895
114	0xbb869b21	-0.0041078483
115	0xbc768dd3	-0.015048462
116	0x3d085444	0.033283487
117	0x3f1c7249	0.61111885
118	0x3ea45348	0.3209479
119	0xbe11689e	-0.14200065
120	0x3f071783	0.5277025
121	0x3e03ed59	0.1288351
122	0xbdf626b6	-0.12019102
123	0xbe7defbb	-0.24798481
124	0xbdc37e8e	-0.09545623
125	0xbf1322bc	-0.57474875
126	0xbcb68b53	-0.022283232
127	0x3eb3077b	0.34966645

onnx::MatMul_239 f4 [8, 24]
0	0xbc8c7d21	-0.01714951
1	0xbe21dff7	-0.15808092
2	0xbe610d4b	-0.21977727
3	0x3de59986	0.11210923
4	0x3e869bfe	0.26290888
5	0xbe78ebe8	-0.24308741
6	0x3f19683d	0.5992468
7	0xbd774ae4	-0.060374156
8	0x3f186a02	0.59536755
9	0x3e24e37b	0.16102402
10	0x3ebc5479	0.36783198
11	0x3e0b7d5c	0.1362204
12	0xbed35dbc	-0.4128245
13	0x3f02d842	0.51111233
14	0xbe82b6ca	-0.25530082
15	0x3e17520a	0.14777389
16	0xbf09d2b2	-0.5383712
17	0xbedbd36e	-0.42934746
18	0xbf03a8b1	-0.5142928
19	0xbf3b35d5	-0.73129016
20	0x3f3609c7	0.7110867
21	0x3dbbd63a	0.0917172
22	0xbea7756a	-0.32706767
23	0xbedcf1ab	-0.43153128
24	0xbe417027	-0.18890439
25	0xbf0afa40	-0.542881
26	0xbdb07fa6	-0.08618097
27	0xbdeec7a3	-0.116591714
28	0x3f8690bd	1.0512921
29	0x3f2aa77d	0.66661817
30	0xbe19f478	-0.15034664
31	0xbeadad2c	-0.33921182
32	0x3e4b7601	0.19869234
33	0xbebcc9fd	-0.36872855
34	0xbedeb85f	-0.4350004
35	0xbdb88783	-0.09010222
36	0xbf8e7d2e	-1.1131952
37	0xbe942ea5	-0.28941837
38	0x3e56d598	0.20979917
39	0x3f058b69	0.5216585
40	0x3e31de2e	0.17369911
41	0xbda08c96	-0.07839315
42	0x3cfd0e64	0.030890651
43	0xbf060c40	-0.5236244
44	0xbe4c7ecd	-0.19970246
45	0x3e894d4e	0.2681679
46	0xbce16fc6	-0.027519118
47	0x3f22c690	0.6358423
48	0x3e8305c7	0.25590345
49	0x3ca029be	0.019551154
50	0x3ea2c645	0.31791893
51	0xbf27b1b5	-0.65505534
52	0xbe6e54c9	-0.2327453
53	0xbeadccad	-0.33945218
54	0xbf66af63	-0.9011137
55	0xbee3a627	-0.44462702
56	0x3e87c474	0.2651707
57	0x3f1c2d4c	0.6100662
58	0x3f2edf6c	0.68309665
59	0x3e8b4759	0.2720287
60	0x3f3385af	0.7012586
61	0xbdc78465	-0.09742049
62	0x3f1ccabf	0.61246866
63	0xbe6b8e74	-0.2300356
64	0xbf546428	-0.82965326
65	0x3ead856c	0.33890855
66	0x3f2d85fc	0.6778257
67	0x3f0884ad	0.5332745
68	0x3ec8c37e	0.3921165
69	0x3eb4041d	0.35159388
70	0x3da9089d	0.08253596
71	0xbf35820a	-0.7090155
72	0x3d93aeeb	0.07211097
73	0x3bf34892	0.0074244225
74	0x3fa29758	1.2702436
75	0x3f072f61	0.5280667
76	0xbec8fd4a	-0.39255744
77	0xbf214ed7	-0.63010925
78	0xbf2ebf9d	-0.6826113
79	0x3eeacecd	0.458609
80	0xbe876baa	-0.2644933
81	0xbc57b751	-0.013166265
82	0x3f309909	0.68983513
83	0xbe85feab	-0.2617086
84	0xbf1200d6	-0.57032526
85	0xbf91afdc	-1.1381793
86	0xbf06dbff	-0.5267944
87	0x3e13a627	0.14418851
88	0x3f3c7764	0.73619676
89	0xbf7a1f22	-0.97703755
90	0x3f122442	0.57086575
91	0xbdd07499	-0.10178489
92	0xbf54df06	-0.83152807
93	0x3e15176f	0.1455972
94	0xbe20c496	-0.15699992
95	0xbe6dc4b4	-0.23219568
96	0xbc61fddc	-0.013793435
97	0x3db7d7e5	0.089767255
98	0xbed3c531	-0.41361383
99	0xbdd6dd3e	-0.10491417
100	0xbd433088	-0.047653705
101	0x3ccc6627	0.024951054
102	0x3e2fd00f	0.17169212
103	0x3e7c288e	0.24624845
104	0x3f20dae1	0.6283398
105	0xbf6b132d	-0.91826135
106	0x3eb56b34	0.35433352
107	0xbe835025	-0.25647083
108	0xbc4ec0ca	-0.012619207
109	0x3d217749	0.0394204
110	0xbe9bf1d9	-0.30457953
111	0xbed3cdb4	-0.41367877
112	0xbd516918	-0.051125616
113	0xbf24c029	-0.64355713
114	0x3e3c6ea5	0.18401583
115	0x3cb45769	0.022014337
116	0xbe940be0	-0.2891531
117	0xbe1e5d08	-0.15465176
118	0xbe781212	-0.24225643
119	0x3f2d9122	0.6779958
120	0xc0072005	-2.1113293
121	0xbf0f4044	-0.55957437
122	0xbeaead5c	-0.34116638
123	0x3e606db5	0.2191685
124	0x3e134a3f	0.14383791
125	0x3ed3bffb	0.41357407
126	0x3e04cb10	0.12968087
127	0xbcbcc4c0	-0.023043036
128	0xbee59e26	-0.4484722
129	0x3ea71eb3	0.3264061
130	0xbdfc33f7	-0.12314599
131	0xbe8a3db2	-0.27000195
132	0xbe7d4ada	-0.24735585
133	0xbf854ee6	-1.0414703
134	0xbf9946f8	-1.1974783
135	0xbfe3d11e	-1.7798193
136	0x3ddf82fc	0.10913655
137	0x3e7de39e	0.2479386
138	0xbd8f0d3f	-0.06984948
139	0xbd38a151	-0.04507572
140	0x3db05470	0.08609855
141	0x3e676794	0.22598106
142	0xbf2081b0	-0.6269789
143	0x3d111b77	0.035426583
144	0xbec40274	-0.38283122
145	0xbe2b75fc	-0.16744226
146	0xbe25c8ae	-0.16189834
147	0x3ee8cb86	0.45467776
148	0xbebb2258	-0.3654964
149	0x3e017d64	0.12645489
150	0xbeeb67d1	-0.45977643
151	0x3e50f056	0.20404181
152	0xbe273899	-0.16330184
153	0xbc34be4c	-0.011031698
154	0xbe52e02a	-0.20593324
155	0x3ed5b007	0.4173586
156	0xbeb07515	-0.34464327
157	0xbee2ef69	-0.4432328
158	0xbe16b28c	-0.14716548
159	0x3e91b0fb	0.28455338
160	0x3d3587aa	0.044318832
161	0x3e50051d	0.2031445
162	0x3ee5e977	0.44904682
163	0x3dbaecac	0.09127173
164	0xbb002144	-0.0019551078
165	0xbf6366f3	-0.88828963
166	0xbe38cc7a	-0.18046752
167	0x3e2675e6	0.16255912
168	0x3f4e29a5	0.80532295
169	0x3f757e2e	0.9589566
170	0x3e4c32f6	0.19941315
171	0xbe785ca9	-0.24254097
172	0xbedfe1e2	-0.43727022
173	0xbe0b2c7e	-0.13591191
174	0x3e6d620d	0.23181935
175	0xbeec6218	-0.4616859
176	0x3eca3c90	0.3949933
177	0xbd4f3bb7	-0.050594058
178	0xbe0acbfa	-0.13554373
179	0x3f272f65	0.65306693
180	0x3ed5fedc	0.41796005
181	0x3e80809f	0.2509813
182	0x3eddaf10	0.43297625
183	0x3f1ea910	0.6197672
184	0x3f37fb7e	0.7186812
185	0x3f02399e	0.50869167
186	0x3f136e54	0.5759022
187	0x3f275127	0.65358204
188	0x3f2b884f	0.67004865
189	0x3de08cb6	0.109643385
190	0x3f68ed11	0.90986735
191	0x3e0612be	0.13093087

onnx::MatMul_249 f4 [8, 8]
0	0xbf1685b9	-0.58797795
1	0xbb6df067	-0.003630662
2	0x3edc1f0c	0.42992437
3	0xbee35094	-0.44397414
4	0x3eb46050	0.3522973
5	0x3eb5408b	0.35400805
6	0x3f057070	0.5212469
7	0x3f3de6d8	0.74180365
8	0xbd817ba7	-0.06322413
9	0xbf6ba95f	-0.92055315
10	0x3d147640	0.036245584
11	0x3f4fad96	0.81124246
12	0x3ee1d2c0	0.44106102
13	0x3e6554df	0.22395657
14	0xbd4cc21d	-0.04998981
15	0xbe86025e	-0.2617368
16	0x3f19b9fb	0.6004941
17	0xbf41ee89	-0.757546
18	0x3f042666	0.5162109
19	0xbf3977f8	-0.7244868
20	0x3f020571	0.5078955
21	0x3ea1ecc0	0.31625938
22	0xbedbfdb2	-0.42966992
23	0x3f2b1f30	0.66844463
24	0xbf48c259	-0.7842155
25	0x3e98a348	0.29812074
26	0x3d46abb2	0.048503585
27	0x3f00581d	0.5013445
28	0x3ebd36aa	0.36955768
29	0x3f366c52	0.71259034
30	0x3ccc9542	0.024973515
31	0xbd86792f	-0.06566083
32	0xbf562844	-0.8365519
33	0xbd6caa92	-0.057779856
34	0xbf2ec52f	-0.6826963
35	0x3ea0ee1f	0.31431672
36	0x3e9f7346	0.31142634
37	0x3f1c6604	0.61093163
38	0xbebb9610	-0.36637926
39	0xbeba81bf	-0.36427113
40	0xbf1e3ce0	-0.6181164
41	0x3eddbad5	0.43306604
42	0x3f0e1e7e	0.5551528
43	0xbeac3d5e	-0.3364057
44	0xbf2f95af	-0.68587774
45	0xbea5de43	-0.32396135
46	0xbf8714af	-1.0553187
47	0x3e4e06ec	0.20119828
48	0xbdfecc9e	-0.124413714
49	0x3e58e81c	0.21182293
50	0x3e5b6a89	0.21427359
51	0xbf15c46e	-0.5850285
52	0x3f3070f4	0.6892235
53	0x3f6cdf48	0.925282
54	0xbeaab032	-0.3333755
55	0xbe920679	-0.28520563
56	0x3e8f1f31	0.27953485
57	0x3c556712	0.013025062
58	0x3df115c5	0.1177173
59	0xbf46ffa0	-0.777338
60	0x3f29069d	0.66025716
61	0xbf1468e8	-0.57972574
62	0x3e032f81	0.1281109
63	0xbeaa7157	-0.33289596

onnx::MatMul_250 f4 [8, 16]
0	0xbd66f4f5	-0.056385953
1	0x3e036e6f	0.12835096
2	0xbf8b191f	-1.0867041
3	0x3ed20cce	0.41025394
4	0xbeb4c234	-0.35304415
5	0x3e327799	0.17428435
6	0xbe394724	-0.18093544
7	0x3dfa07fd	0.12208555
8	0x3d45cad4	0.048289135
9	0x3d822e06	0.063564345
10	0x3d97498a	0.07387073
11	0xbd4fb861	-0.050712947
12	0xbe565ce5	-0.20933874
13	0x3ded3c3a	0.11583753
14	0x3dbd2c33	0.09236946
15	0x3e66c990	0.22537827
16	0xbe757084	-0.23968703
17	0xbf46a0ab	-0.7758891
18	0x3dbf50a4	0.09341553
19	0x3e8fcd27	0.28086206
20	0x3e0252d1	0.12726904
21	0xbe7bcc49	-0.24589647
22	0x3e4dc628	0.20095122
23	0xbf6c3212	-0.922639
24	0xbee4b5fc	-0.44670093
25	0xbcb10896	-0.02161054
26	0xbc5c06db	-0.013429369
27	0xbf02b72a	-0.51060736
28	0x3cd95e0b	0.026534101
29	0xbf451426	-0.7698387
30	0x3e5e6e0c	0.21721667
31	0xbf52b1af	-0.82302374
32	0xbe41a732	-0.18911436
33	0x3e38da7b	0.18052094
34	0xbe3d05b0	-0.18459201
35	0xbf439f36	-0.7641481
36	0xbb986b10	-0.0046514347
37	0xbeaf11f7	-0.34193394
38	0x3e1060d8	0.14099443
39	0x3e5862af	0.21131395
40	0x3efaa415	0.4895331
41	0xbf4d9bc6	-0.80315816
42	0xbf710a17	-0.9415602
43	0x3f03bee9	0.5146318
44	0x3dc89c26	0.09795408
45	0x3e8fcaa8	0.28084302
46	0xbf203d9f	-0.62594026
47	0xbe0e16d0	-0.1387589
48	0x3e192298	0.14954603
49	0x3d3913ba	0.04518483
50	0x3e0c3fc0	0.13696194
51	0xbec1872c	-0.3779844
52	0x3cfdd899	0.03098707
53	0xbe36fbcc	-0.1786949
54	0xbede3e58	-0.4340694
55	0x3e88ad09	0.26694515
56	0xbe8d434a	-0.275904
57	0xbd417f1e	-0.04724037
58	0xbda790e1	-0.0818193
59	0x3ec2f634	0.38078463
60	0x3ef6dbec	0.48214662
61	0x3dd2d759	0.102949806
62	0x3e5bda34	0.21469957
63	0x3f012e30	0.504611
64	0xbea19824	-0.31561387
65	0xbdde9b9a	-0.108695224
66	0x3e87790f	0.26459548
67	0xbe4799f4	-0.19492322
68	0x3f4691ce	0.7756623
69	0xbede5240	-0.43422127
70	0x3e2526cd	0.16128083
71	0xbe60661f	-0.21913956
72	0x3e854e19	0.26036146
73	0x3ef83ccb	0.4848388
74	0x3f00bc54	0.50287366
75	0xbcd43d7f	-0.02590823
76	0x3f1b2d8b	0.6061637
77	0xbc35c940	-0.011095345
78	0x3f027177	0.50954384
79	0xbee015b2	-0.43766552
80	0xbebbf764	-0.36712182
81	0x3dcde9dc	0.10054371
82	0xbcf368e0	-0.029713094
83	0xbea3f7fe	-0.3202514
84	0xbc0d09df	-0.0086083105
85	0xbed1ffa2	-0.41015345
86	0x3e2a80a9	0.16650642
87	0xbe33623f	-0.17517947
88	0x3e8d815e	0.27637762
89	0xbc1af98f	-0.0094589135
90	0xbba6d1be	-0.005090921
91	0xbf2c517a	-0.67311823
92	0x3e0bed58	0.13664758
93	0x3de40149	0.111330576
94	0x3e079145	0.1323901
95	0xbe826fd8	-0.25475955
96	0x3f335b31	0.7006102
97	0xbf043022	-0.51635945
98	0x3e476bff	0.19474791
99	0x3f3b26e2	0.73106205
100	0xbda95358	-0.0826785
101	0xbe8f277d	-0.27959815
102	0xbe1fe029	-0.15612854
103	0xbe5939a7	-0.21213399
104	0xbe66b878	-0.22531307
105	0xbcdd2446	-0.026994836
106	0xbd1fc9df	-0.03901088
107	0xbe098615	-0.13430054
108	0xbd2d8c2c	-0.042370006
109	0xbe87463f	-0.2642078
110	0x3eeb0628	0.45903134
111	0x3eef02d2	0.4668184
112	0xbec05727	-0.37566492
113	0x3f6993eb	0.9124133
114	0x3e3ed2ee	0.18635151
115	0xbd137ed2	-0.036009617
116	0xbe7c5ce3	-0.24644808
117	0x3f8d3df1	1.1034528
118	0xba677a4c	-0.00088301743
119	0x3fb3f708	1.4059763
120	0x3f4dc205	0.80374175
121	0xbe5467fb	-0.2074279
122	0xbd551827	-0.052024987
123	0xbe97d74f	-0.29656455
124	0xbea98aa7	-0.33113596
125	0x3f3ba888	0.73304033
126	0xbdcb8893	-0.09938159
127	0x3f42b5d7	0.76058716

onnx::MatMul_251 f4 [16, 8]
0	0xbe1728f0	-0.1476171
1	0xbf117b95	-0.56829196
2	0xbe1dfad0	-0.15427709
3	0x3ee55e25	0.4479839
4	0x3ec0fdda	0.37693673
5	0xbefb87ed	-0.4912714
6	0xbd4bc99a	-0.04975281
7	0x3ecfdf08	0.40599847
8	0xbf04591b	-0.51698464
9	0x3d5d803e	0.05407738
10	0x3f2e4849	0.6807905
11	0x3e5600da	0.20898762
12	0x3d8b46c9	0.068006106
13	0xbf0cdd37	-0.5502505
14	0x3dc5c522	0.09656741
15	0xbf5ce05d	-0.8627985
16	0xbd249672	-0.04018254
17	0x3e081650	0.13289762
18	0xbebfe595	-0.37479845
19	0x3e0c1745	0.13680752
20	0x3e121584	0.1426602
21	0x3f230604	0.63681054
22	0x3d05fdf6	0.0327129
23	0x3e65a838	0.22427452
24	0xbee5aaca	-0.44856864
25	0xbf28cb54	-0.65935254
26	0x3eee3100	0.4652176
27	0x3e53273f	0.2062044
28	0x3e8b5a14	0.27217162
29	0xbee9738d	-0.4559597
30	0xbf4dd7ac	-0.80407214
31	0xbdabe1de	-0.0839269
32	0x3e40b4b7	0.18818937
33	0x3d9c43db	0.0763013
34	0xbd90074d	-0.070326425
35	0xbdd0264b	-0.10163554
36	0xbecd7132	-0.40125424
37	0x3e520dd5	0.20513089
38	0xbe04eba2	-0.12980512
39	0x3ebae785	0.3650476
40	0x3dc30438	0.09522289
41	0x3f7b775d	0.9822901
42	0x3cf6bcc6	0.030119311
43	0xbf3023a4	-0.68804383
44	0xbf7289aa	-0.9474131
45	0x3ee75c3f	0.45187566
46	0xbe080771	-0.13284089
47	0xbd0c8410	-0.034305632
48	0xbec86fbd	-0.3914775
49	0xbcc86ed2	-0.024466906
50	0x3c39a34d	0.011330438
51	0xbe604439	-0.21901025
52	0x3f16df85	0.58934814
53	0x3e506023	0.20349173
54	0xbd908af1	-0.07057751
55	0x3d59fb0b	0.05321793
56	0x3e580f7c	0.21099657
57	0x3edfedda	0.43736154
58	0x3e86c981	0.2632561
59	0xbe917e24	-0.2841655
60	0xbfb12f7e	-1.3842618
61	0x3f10c5c9	0.56551796
62	0xbfa1c556	-1.2638347
63	0x3ec2bc04	0.3803407
64	0xbe7674b7	-0.2406796
65	0xbf30f599	-0.6912475
66	0x3ef47378	0.47744346
67	0x3ec83efa	0.39110547
68	0x3e4c252c	0.19936055
69	0xbef27521	-0.47354987
70	0xbda1ee38	-0.07906765
71	0xbe6576c7	-0.22408591
72	0xbe8c8796	-0.27447194
73	0x3eeacae8	0.4585793
74	0x3f51e698	0.81992483
75	0xbd711bc1	-0.05886436
76	0xbee0359a	-0.43790895
77	0xbe077ccd	-0.13231201
78	0x3e2ffe7b	0.1718692
79	0xbf8820f5	-1.0635058
80	0xbeaebfec	-0.341308
81	0x3ed4b478	0.41543937
82	0x3f3dc77c	0.74132514
83	0xbd1672fe	-0.03673076
84	0xbeb26e76	-0.348499
85	0xbe8f809f	-0.28027818
86	0x3ebd397b	0.36957917
87	0xbf98751f	-1.1910743
88	0x3e8a49aa	0.27009326
89	0x3e828ab6	0.25496453
90	0xbdfe9c60	-0.1243217
91	0xbf235d09	-0.63813835
92	0xbdbb4567	-0.09144097
93	0x3f01b105	0.50660735
94	0x3d655b5d	0.055995334
95	0x3eb0f244	0.34559834
96	0x3f073657	0.5281729
97	0x3dedf36a	0.11618693
98	0xbc94a1b6	-0.018143516
99	0x3c072a94	0.0082498975
100	0xbf28737f	-0.65801233
101	0x3e00d17d	0.12579913
102	0xbe85e848	-0.2615378
103	0x3ee805dc	0.4531697
104	0xbed00a74	-0.40632975
105	0xbd8c161b	-0.06840154
106	0x3f082e69	0.53195816
107	0x3e312b87	0.1730176
108	0x396b84a1	0.00022460755
109	0xbeac1fe6	-0.33618087
110	0xbcc113cd	-0.023569012
111	0xbf221ada	-0.6332222
112	0xbe754af8	-0.2395438
113	0x3e925dbb	0.28587136
114	0x3efa599e	0.48896497
115	0xbdf342fc	-0.11878011
116	0xbeb7c7ce	-0.35894626
117	0xbdf155b6	-0.11783926
118	0x3e99ec85	0.30063263
119	0xbf536230	-0.825717
120	0xbdbc4a0d	-0.091938116
121	0xbe84191e	-0.25800413
122	0xbd8f9c8f	-0.07012283
123	0x3ea1055a	0.31449395
124	0xbf36105f	-0.7111873
125	0x3f84a69b	1.0363344
126	0xbe892cec	-0.26792085
127	0x3f0b129d	0.54325277

onnx::MatMul_252 f4 [8, 8]
0	0xbdd17fb8	-0.102294385
1	0xbe847bba	-0.25875646
2	0xbd3a911a	-0.045548536
3	0x3ebd6bed	0.36996403
4	0x3e194aca	0.14969936
5	0x3d2d6452	0.042332
6	0xbd9f9ab6	-0.07793181
7	0x3c43e339	0.01195603
8	0xbde3f718	-0.11131114
9	0xbcfd7b6f	-0.030942647
10	0x3e067b3e	0.1313295
11	0x3f213bdb	0.6298196
12	0xbd4f9d70	-0.050687253
13	0x3e8be4fa	0.27323133
14	0xbe5f274f	-0.21792339
15	0xbc31cf84	-0.010852698
16	0x3f194da2	0.59884083
17	0xbe1dde0c	-0.15416735
18	0x3db618f9	0.08891482
19	0x3e8c9fe6	0.27465743
20	0xbeb600ce	-0.3554749
21	0xbe915bd7	-0.2839038
22	0xbea0615d	-0.31324282
23	0xbf07c700	-0.53038025
24	0x3de90c6d	0.11379323
25	0xbe3f8943	-0.18704705
26	0x3e52d51f	0.20589112
27	0x3da8b1a2	0.08237006
28	0x3d9ac623	0.07557323
29	0xbf0920ca	-0.5356566
30	0x3e075549	0.13216127
31	0x3e86c832	0.26324612
32	0x3d6c1637	0.057638373
33	0x3e6cd143	0.23126702
34	0xbd24cd8e	-0.040235095
35	0xbe603db8	-0.21898544
36	0x3e54109b	0.2070946
37	0xbe408cff	-0.18803786
38	0x3e946cb5	0.28989187
39	0xbd4e362a	-0.050344624
40	0x3df82051	0.12115539
41	0x3eb7448f	0.35794494
42	0x3c9e3df1	0.019316645
43	0x3eab35df	0.33439538
44	0x3e49cfef	0.19708227
45	0x3e730f8d	0.23736401
46	0xbe834cc0	-0.25644493
47	0x3e9b6189	0.3034785
48	0xbe88e3b1	-0.26736215
49	0xbe574015	-0.21020539
50	0x3e86d540	0.26334572
51	0xbdd5b8a0	-0.10435605
52	0xbe4dbcc0	-0.20091534
53	0x3e9d505d	0.30725375
54	0x3e8f566e	0.27995628
55	0xbd0fb9e0	-0.035089374
56	0xbd19eda4	-0.037580147
57	0xbd9721d0	-0.07379496
58	0xbedf695e	-0.43635076
59	0x3e95805f	0.29199502
60	0xbe19e860	-0.1503005
61	0xbe23b977	-0.15988718
62	0x3e0c336c	0.13691491
63	0x3e6a764b	0.22896688

onnx::MatMul_253 f4 [8, 15]
0	0xbfa09262	-1.2544672
1	0x3f967a2a	1.1756032
2	0x3f9d00ee	1.2265909
3	0x3f767d2c	0.9628475
4	0x3f60e6cd	0.87852174
5	0xbfa76764	-1.3078427
6	0xbf659028	-0.8967309
7	0xbec9075e	-0.39263433
8	0xbf9b5f91	-1.213854
9	0xbdd59d0c	-0.10430345
10	0xbebd13fe	-0.36929315
11	0xbea727db	-0.32647595
12	0xbdd84cc8	-0.1056152
13	0xbfa32e99	-1.2748595
14	0xbf5b425a	-0.8564812
15	0x3f9006de	1.1252096
16	0x3f64bee9	0.89353806
17	0x3f440d03	0.76582354
18	0xbf92523e	-1.1431348
19	0xbec29810	-0.3800664
20	0x3f7948c4	0.97376657
21	0x3f887e54	1.0663552
22	0x3ed7d55f	0.42154977
23	0xbf363f69	-0.71190506
24	0xbfd12446	-1.6339195
25	0xbf0b99bf	-0.5453147
26	0xbf0277db	-0.50964135
27	0xbf1378f6	-0.57606447
28	0xbf84e9c4	-1.038384
29	0xbf05bb1a	-0.5223862
30	0xbfea048b	-1.8282636
31	0xc0201f50	-2.5019112
32	0x3eb0f38b	0.3456081
33	0x3d4bb0c6	0.04972913
34	0xbc61af76	-0.013774743
35	0xbeac1543	-0.3360997
36	0xbf5826d2	-0.84434235
37	0x3f38d653	0.7220203
38	0xbfdd3464	-1.7281613
39	0x400243c5	2.0353863
40	0x3e4f252a	0.2022902
41	0x3fec2e0e	1.8451555
42	0xbfa25c59	-1.2684432
43	0xbf84888f	-1.0354174
44	0xbf85e2fa	-1.0459893
45	0xbf9405c5	-1.1564261
46	0xbf97e182	-1.1865695
47	0xbfa19227	-1.2622727
48	0x3f556c28	0.8336816
49	0x3f7633d7	0.9617285
50	0xbf1b79a6	-0.60732496
51	0xbec4ece1	-0.38461974
52	0xbf8305e5	-1.0236174
53	0x3f8f83b2	1.1212065
54	0xbf5e409a	-0.86817324
55	0xbfa98ce0	-1.3246117
56	0xbf92564b	-1.1432585
57	0x3f042491	0.51618296
58	0xbc8eda4c	-0.017438076
59	0x3ea032bf	0.31288716
60	0x3eb61ebc	0.35570323
61	0xbe87f2ba	-0.26552373
62	0xbf635288	-0.8879781
63	0xbea16947	-0.31525633
64	0x3ed2d11e	0.4117517
65	0x3eec8652	0.46196228
66	0x3f86f061	1.0542108
67	0xbe9ab36d	-0.30215016
68	0xbe5eeca1	-0.21769954
69	0xbf6d13a1	-0.92608076
70	0x3fa1eee7	1.2651032
71	0xbed206e9	-0.41020897
72	0xbee6cc56	-0.4507777
73	0x3f2ecaaf	0.6827802
74	0xbeddb101	-0.43299106
75	0xbfe42fc7	-1.782708
76	0xbf7dae78	-0.99094343
77	0xbefe6000	-0.49682617
78	0xbf8cf247	-1.1011437
79	0xbf05c3bd	-0.522518
80	0x3f8f7643	1.1207966
81	0x3f8ab903	1.0837711
82	0x3fe9064d	1.8205048
83	0x3faccc2d	1.349981
84	0x3fa161f7	1.2608021
85	0x3c63e625	0.013909851
86	0xbf5f600e	-0.8725594
87	0xbf0b336e	-0.5437535
88	0xbef558bf	-0.4791927
89	0xbef966c0	-0.48711205
90	0xbf1c9267	-0.6116089
91	0xbe62f1dc	-0.22162575
92	0x3ea6be4c	0.3256706
93	0xbf68f98d	-0.91005784
94	0xbf57b24d	-0.8425644
95	0x3e81467c	0.25249088
96	0xbf5c14c8	-0.8596921
97	0xbf78a376	-0.9712442
98	0xbe00f782	-0.12594417
99	0xbf50f9b8	-0.8163104
100	0x3ff8f7f7	1.9450673
101	0x3fc51c5b	1.5399278
102	0x3dd17542	0.10227443
103	0x3f324ca6	0.69648206
104	0x3f6baf6a	0.92064536
105	0x3fd5f38a	1.6714947
106	0x3c940794	0.01807002
107	0xbfaa65aa	-1.3312275
108	0xbfe16766	-1.760968
109	0xc005fb86	-2.0934768
110	0x3f053f6b	0.52049893
111	0xbe678d94	-0.22612602
112	0xbf0807ec	-0.5313709
113	0xbfaaaee4	-1.3334622
114	0xbffab7a2	-1.958729
115	0xbf2e8256	-0.68167627
116	0xbfb0abf5	-1.3802477
117	0x3f966130	1.1748409
118	0x3fc45b97	1.5340451
119	0x3fa5bcc3	1.294823
